tflitearduino/data/model_data.tflite (tflite, 21280 bytes, 6 tensors)

sequential_1/dense_3/BiasAdd/ReadVariableOp/resource f4 [52]
000000 70 37 c4 bd 45 24 00 be af 33 21 be 8e f6 36 bd
       -0.09580886 -0.12513836 -0.15742372 -0.044668727
000010 47 68 c1 bd 33 2c f9 bd de a6 02 be 6d 93 24 bd
       -0.094437174 -0.121666335 -0.12758967 -0.04017966
000020 f9 3d 45 bc 68 88 72 bd c2 32 d5 bd 18 81 35 bd
       -0.012038701 -0.05921212 -0.10410072 -0.044312567
000030 f5 d7 08 be f5 3f 2c be 30 12 0b bc 67 d3 e3 bd
       -0.13363631 -0.16821273 -0.008488223 -0.11124306
000040 83 2a 13 3d 43 e5 10 be 38 76 fd bc 1c 1c b9 bd
       0.035929214 -0.14149956 -0.03094016 -0.090385646
000050 f9 f0 1b be 61 54 40 be 67 79 df bd 14 21 ae bb
       -0.15228643 -0.18782188 -0.109118275 -0.005314002
000060 57 85 7b 3d 9a a6 10 be c7 0c 4a be 2c 47 06 be
       0.06140646 -0.14126053 -0.19731437 -0.13113087
000070 25 37 ba bd be 0c 9c 3b d8 b4 32 be a2 6d 8f bd
       -0.09092549 0.004762261 -0.17451799 -0.07003333
000080 17 f9 26 bd 2c 77 0e bd 2d 4c f1 bd 81 78 13 be
       -0.040764894 -0.03478162 -0.117821075 -0.14401437
000090 7d 8a 08 bd 6e 0b 97 bd 51 bc 76 3b df 6c 4b bd
       -0.033335198 -0.07375227 0.0037648866 -0.049664374
0000a0 28 1e dc bd 31 b6 f1 bd 55 1a b4 3d fb 95 e6 bd
       -0.10747939 -0.118023284 0.08794085 -0.11259075
0000b0 29 51 db bc ef bc d2 bb 7b 0b 0c be 04 c5 dc bd
       -0.026772099 -0.006431214 -0.13676254 -0.10779765
0000c0 12 4c b6 bc 9c ba b8 bd 8c 67 46 3c fa be b5 3d
       -0.02225307 -0.09019968 0.012109648 0.088743165

sequential_1/dense_4/BiasAdd/ReadVariableOp/resource f4 [52]
000000 a4 d1 23 be d8 14 b0 bd 4c ae 06 bd 1c 1d cb 3c
       -0.1599794 -0.08597726 -0.032881066 0.024794154
000010 f6 60 ac bd 5e 8b 34 be 31 39 80 bd 4d 17 46 be
       -0.08416931 -0.1763129 -0.062609084 -0.19344826
000020 83 92 80 bd 7f 12 09 bd 60 6c 6e bd 0c 93 13 be
       -0.06277945 -0.033464905 -0.058208823 -0.14411563
000030 9d fb 56 be 6d 14 95 bd c2 d4 0c be 37 52 ae 3d
       -0.2099442 -0.072792865 -0.13753036 0.08511775
000040 2c e0 79 3c 6e c7 7a bd 07 0d d6 bd 57 9a e2 bd
       0.015251201 -0.061225347 -0.104517035 -0.11064594
000050 ef 29 10 be 4b 9c 09 be 9f e5 0d be 1b 69 cb bd
       -0.14078496 -0.13438527 -0.13857125 -0.09932157
000060 4e 0b e5 bd b4 8c 48 be 66 28 77 be 8b 21 04 be
       -0.11183797 -0.19584924 -0.24136505 -0.1290342
000070 5f 42 fa bd f5 8c 19 be 2e 6d 06 be 7d 4b ed bd
       -0.122196905 -0.14995177 -0.13127586 -0.11586664
000080 49 19 25 be 6e 0f da bd 93 3f a6 bd 1d f2 62 3b
       -0.16122927 -0.10647474 -0.081175946 0.0034629174
000090 64 c2 87 bd 91 c0 eb bd 87 0f c5 bd 9c 46 39 bd
       -0.06628874 -0.115113385 -0.09622102 -0.045233354
0000a0 de 78 a3 bd 37 73 a6 bd 11 30 8b 3c 66 24 de bd
       -0.07982038 -0.08127444 0.016990693 -0.10846786
0000b0 5e f9 1c be 5c a4 86 bd 31 b6 ba bb 33 77 ec bd
       -0.15329501 -0.06574318 -0.0056979884 -0.11546173
0000c0 39 e5 bd bd 85 91 2f bd 38 6a b3 bd 7f 6c 8e 3a
       -0.092722364 -0.042863388 -0.08760494 0.0010866075

sequential_1/dense_5/BiasAdd/ReadVariableOp/resource f4 [12]
000000 52 df ed bc 35 21 4b be d1 16 b0 be 97 e4 8b be
       -0.029037151 -0.19836886 -0.34392408 -0.27322838
000010 a7 c2 71 3e f4 1b 0c 3f e6 be a2 3d d9 99 11 3e
       0.2360941 0.54730153 0.07946567 0.14218844
000020 4f 83 6e bc ef 6c 84 be 2a 1b a9 3d 29 5c 06 be
       -0.014557674 -0.2586436 0.08257134 -0.13121094

sequential_1/dense_3/MatMul f4 [52, 26]
000000 74 27 aa bd d7 d5 f9 3d c9 b6 69 bc 29 ae 01 bd
       -0.08308306 0.1219899 -0.014264771 -0.031660233
000010 e9 e3 2c be 86 54 10 3c ec c9 3f 3e d9 70 af 3d
       -0.16883816 0.008809214 0.18729371 0.08566446
000020 82 c0 2b 3e 90 b7 a5 3d e0 a0 05 3d 4f eb 12 be
       0.16772655 0.080916524 0.032624125 -0.14347576
000030 5c 20 17 3e 7c c4 f1 3d 6a 4f 6d be 58 f1 5b 3e
       0.14758438 0.118050545 -0.23174825 0.21478784
000040 dc 89 40 3d 48 cb f2 bc 00 42 81 3e 2a 78 f6 3c
       0.047006473 -0.029637948 0.25245667 0.030086596
000050 15 f6 37 3e 80 37 5d 3c c0 fe ac 3d bc 45 a3 bd
       0.17964967 0.013502002 0.08447027 -0.07972285
000060 40 54 b1 3d ac cb f7 bd 41 2f 87 3e d7 2f b3 3e
       0.086586475 -0.12099394 0.2640324 0.34997436
000070 2f 6e 31 3e 92 bd f9 3d 3d 2d 8f 3e ab 67 20 be
       0.17327188 0.12194361 0.27964202 -0.15664546
000080 27 34 56 be e3 6d 52 be b0 36 a2 3d d6 86 57 bd
       -0.20918332 -0.20549731 0.07920587 -0.052618824
000090 95 01 f2 bd b4 52 ae 3d 50 42 b3 3d fa 48 6e 3e
       -0.11816708 0.08511868 0.087528825 0.23270026
0000a0 e4 a4 99 3d 70 46 ef 3c f8 c5 0e 3d 54 91 03 be
       0.075021535 0.029208392 0.034856766 -0.12848407
0000b0 9e 32 0e 3e 55 a8 83 be d6 b9 56 3e 80 a6 ef bb
       0.13886496 -0.25714365 0.20969328 -0.0073135495
0000c0 52 7c 73 3e fe 70 45 be 18 0e b9 3d 26 76 58 3d
       0.23777893 -0.19281384 0.09035891 0.05284705
0000d0 aa 46 86 3e d6 33 3c 3c 53 d3 02 3e a6 e3 44 3e
       0.26225787 0.011486968 0.12775926 0.19227466
0000e0 95 26 e8 bc 44 39 0d be 88 8c 91 3d 89 ed 85 3e
       -0.02833871 -0.13791376 0.07106882 0.26157787
0000f0 8e b3 3d bd b8 fd 1a 3e 60 18 ff 3d 3e ea 43 be
       -0.046313815 0.15135849 0.12455821 -0.19132325
000100 1a 9d 58 3e 8b 62 6a be b2 36 5d 3e f9 5f 77 3e
       0.2115368 -0.22889154 0.21602896 0.24157704
000110 93 35 55 bd 8e d5 09 be 00 50 b4 3d 78 98 f8 3d
       -0.052053045 -0.13460371 0.08804321 0.12138456
000120 65 79 b9 bd 5c b5 39 be a0 94 c6 bc 66 2e 15 3e
       -0.09056357 -0.1813559 -0.024240792 0.14568481
000130 5a fa 04 be 78 9e 45 3d 81 9b 36 3d 64 d3 81 be
       -0.12986127 0.04824683 0.044581894 -0.2535659
000140 03 ac 8b 3e d1 fe 84 3e 2a da 70 3d 86 b8 53 3e
       0.27279672 0.2597566 0.058801807 0.20675859
000150 9e 87 84 bd 3d bb 40 3d 55 de 2f 3e 02 74 88 bc
       -0.064711794 0.047053564 0.17174657 -0.01665688
000160 bc bf be 3d d1 4d 86 be 9d 57 01 be 94 a3 8d 3d
       0.09313914 -0.26231244 -0.12631078 0.06915966
000170 3c 55 34 be 02 6c 2f be f0 18 e7 bd 8a 4c 6f 3e
       -0.1761064 -0.17131045 -0.11284053 0.23369041
000180 5f b5 d6 3d da 13 ae bc bc 10 3d be ed b6 83 be
       0.104838125 -0.0212497 -0.18463415 -0.257255
000190 0d 62 83 3e 91 91 6b be 38 76 a6 bd f9 0b 70 bc
       0.25660744 -0.23004748 -0.08128017 -0.014651292
0001a0 2e 01 7d 3e c3 08 8f be c6 4e 24 3d 82 5b 97 3e
       0.24707481 -0.27936372 0.040114187 0.29562002
0001b0 0a ec 3c 3e 45 40 2e be 60 6e ff 3d d4 a5 08 bd
       0.18449417 -0.17016704 0.12472224 -0.03336127
0001c0 a5 36 4d 3e e2 03 bf 3d 24 bb 40 3d f3 13 67 be
       0.20040376 0.093269125 0.04705347 -0.22566204
0001d0 18 e8 78 be 08 b0 ae bd 40 1f f7 bd 3a cd 34 3e
       -0.24307287 -0.08529669 -0.12066507 0.17656413
0001e0 8e ef 2a 3e 30 fa 9c 3d 39 b7 2b bd 8c 86 78 be
       0.16692945 0.07664907 -0.04192278 -0.24270076
0001f0 70 c3 07 bd b4 c9 85 be f8 93 3d bd 76 ae 39 3e
       -0.033145368 -0.2613045 -0.046283692 0.18132958
000200 6c 6e 8c be 9a fc ce 3c 69 0a cb 3d 6f cf 2f be
       -0.27427995 0.025266934 0.09914095 -0.17168973
000210 9c 19 16 bd 3e f5 69 bd da 8f 87 3e 6b 48 05 be
       -0.036645517 -0.057118647 0.26476938 -0.13015907
000220 f8 ba 82 bd 44 d9 a1 3d e2 ed 57 3e 56 e4 eb bd
       -0.06383318 0.07902768 0.21086839 -0.11518161
000230 90 d0 35 3e fc 96 13 3e 20 b7 df 3d 03 d2 66 be
       0.17755342 0.14413065 0.109236 -0.2254105
000240 6f 49 98 3e 76 eb 82 bd db 62 ca bd 38 d8 39 3e
       0.29743525 -0.06392567 -0.098821364 0.18148887
000250 64 b9 1a 3e 5e 92 58 3e 0c 65 00 be 14 2c 0f 3e
       0.15109783 0.21149585 -0.12538546 0.13981658
000260 28 97 3d 3d b2 97 14 3e 2a 6b 5e 3e cc 72 cd 3d
       0.046286732 0.14510992 0.21720567 0.100316614
000270 c4 1c 41 bd c9 d7 c2 3e 68 f0 bd 3d 63 2f a2 bb
       -0.047146574 0.38055256 0.092743695 -0.0049494966
000280 99 f1 fc 3c 03 c0 c8 3c a7 1a 1e be e2 c4 d8 bd
       0.030876921 0.02450562 -0.15439855 -0.105844274
000290 c0 da 7e bb 66 6e 4d 3e 00 11 2c be 1a 66 da bd
       -0.003888771 0.20061645 -0.1680336 -0.106640056
0002a0 d0 a8 5c 3e f2 11 72 3e 1f e2 f1 bd fd cc 10 3e
       0.21548772 0.23639658 -0.11810707 0.14140697
0002b0 ac 51 68 bd 74 64 34 bd c0 00 a8 bd ec 47 92 3e
       -0.056718513 -0.044041112 -0.08203268 0.28570497
0002c0 b7 ca 96 be c8 a1 cc bd 06 b6 24 be fb c1 88 3e
       -0.29451534 -0.09991795 -0.16085061 0.26710495
0002d0 f8 a8 53 3e f5 fd 6f 3e b3 86 59 bd 07 1b 0f 3e
       0.20669925 0.2343672 -0.053106975 0.13975154
0002e0 0a 44 08 3e 53 44 64 bc 93 33 5d bd cb 90 4d bd
       0.13307205 -0.013932305 -0.054004263 -0.050186913
0002f0 8c 0d b3 bd 77 19 8a 3e 22 0a e1 3d 4e f4 7c 3e
       -0.08742818 0.26972553 0.10988261 0.2470257
000300 18 57 97 3e 3f f4 0a be 73 0d 67 be 28 4c 2d 3d
       0.29558635 -0.13569735 -0.22563724 0.042308956
000310 a1 9a a5 bc 79 10 c3 3d 03 9d 2d be f0 03 86 be
       -0.020215334 0.09524626 -0.16954426 -0.2617488
000320 ca 7c 2e be ef 69 2e 3d 14 a0 95 bd 80 83 e8 3c
       -0.17039791 0.042581495 -0.07305923 0.028383017
000330 80 58 bd bb 04 3b 3f be cc f8 58 3e 4e d1 79 be
       -0.0057783723 -0.18674856 0.21188658 -0.2439625
000340 68 7b 28 3d 56 41 1b bd 51 f3 86 3e c1 52 86 3c
       0.041133314 -0.037904106 0.2635751 0.016396882
000350 6e 49 8b bd 8b a5 b0 3d 31 2b 06 be de 0e 31 3d
       -0.06801115 0.08625325 -0.13102414 0.04322707
000360 17 31 f4 bd 87 79 4c 3e 9e b6 df bd ee a3 20 3e
       -0.11923426 0.19968234 -0.10923503 0.15687534
000370 f8 4b eb 3d f3 f9 81 3e 88 4a 17 3e 8e ed 43 3e
       0.11489099 0.2538601 0.14774525 0.19133589
000380 9f c8 80 3e 3e c4 29 3e dd 18 d3 3e 8a 6e cd bb
       0.25153062 0.16578767 0.41229907 -0.006269281
000390 dc 52 f8 bd 00 86 2a bb 04 24 62 be 38 36 5c 3e
       -0.12125179 -0.0026019812 -0.22084051 0.21505058
0003a0 b0 b9 4f 3e bb 0c 49 be df d8 03 3e 4d 97 4c be
       0.20285678 -0.19633763 0.12875699 -0.19979592
0003b0 18 bf 55 3e 67 87 72 3e bf 1e 01 be 9c 32 56 3e
       0.20873678 0.23684464 -0.12609385 0.20917743
0003c0 d6 64 d7 bd 3b 0c 58 3e d3 d0 09 3e 51 cc 77 3d
       -0.1051728 0.21098416 0.13458566 0.060497586
0003d0 e1 3d 0b bc f0 c8 61 bd 38 b8 9c 3d ba f5 36 3e
       -0.00849864 -0.05512327 0.076523244 0.17867175
0003e0 a1 0d aa 3e 34 76 fa bd 1a fc 65 3e 24 27 c4 3d
       0.33213523 -0.12229577 0.2245945 0.09577778
0003f0 bc f6 b9 3c 3a 9b a3 3e c0 6c 0c 3e 40 49 0b bc
       0.02270066 0.31954366 0.1371336 -0.008501351

sequential_1/dense_4/MatMul f4 [52, 52]
000000 6a dd c0 bd eb d4 96 3c d9 55 40 3d 0d 47 81 3c
       -0.094172314 0.018412074 0.04695687 0.01578095
000010 95 47 ca bd ba f4 0e be 0c 81 a1 bd 6f 0a 26 3e
       -0.098769344 -0.13960543 -0.07885942 0.16214918
000020 6a ef 43 3e 21 da 39 3e bf 26 36 3c 56 c2 69 be
       0.19134298 0.18149616 0.011117636 -0.2282804
000030 74 7a 7d be 00 17 8d bd 33 35 58 3c b8 98 86 be
       -0.24753743 -0.068891525 0.013196277 -0.2628839
000040 38 26 10 be 1c df 09 be 89 54 bf 3d c2 20 fa 3d
       -0.1407708 -0.13464016 0.09342296 0.12213279
000050 6a 3f c9 bd 9e df ba 3d 42 4a 68 be 5b 72 14 be
       -0.098265484 0.09124683 -0.22684577 -0.14496748
000060 fb 6e 7e be d4 fb 21 bd fd 29 02 be e8 19 8a 3c
       -0.24847023 -0.039546803 -0.1271133 0.016858056
000070 47 95 fb bc 40 7b 34 3e ad 6e b8 bd fc 46 81 3d
       -0.03071083 0.17625141 -0.09005485 0.06312367
000080 7d f6 89 be ce b5 4b 3e d0 a2 17 be 33 65 2c 3d
       -0.26945868 0.19893572 -0.14808202 0.0420887
000090 8e 9f 57 3e bc 95 95 3e 4a b6 79 be de 40 88 bc
       0.21056959 0.292158 -0.24385944 -0.016632494
0000a0 ba 4a 35 bd 9b ab 66 be cd 11 4f be 19 80 b9 3b
       -0.044260718 -0.225264 -0.20221634 0.0056610224
0000b0 dc ce b9 bd 40 18 7e 3e f0 bc 2c be 40 a8 bb 3d
       -0.090726584 0.24813938 -0.16868949 0.091629505
0000c0 cb d6 2a bd 05 fc 8e be cf e9 8e 3e d8 4b a8 3d
       -0.04170875 -0.2792665 0.27912757 0.08217591
0000d0 69 14 81 be 08 71 fa 3d f3 e3 b4 3d e0 6f 07 3d
       -0.25210884 0.1222859 0.0883254 0.033065677
0000e0 2b 68 d9 3c 94 12 34 bd 08 0d cc 3d f4 63 77 be
       0.026538929 -0.04396303 0.09963423 -0.24159223
0000f0 aa 0f df 3b 18 76 e9 3d 6a 0d a1 3d 21 56 dc bd
       0.006807287 0.11399478 0.07863887 -0.10758615
000100 38 23 bd 3d c2 2a 4c 3d e8 02 21 bc 04 72 96 be
       0.09235233 0.049845465 -0.009827353 -0.29383862
000110 d9 5c ab 3d 06 7d 27 3d d9 60 4b 3e fc f2 c3 3d
       0.08367319 0.040890716 0.19861163 0.0956783
000120 97 ee 4b be 25 db 38 be b1 e7 d7 bd e0 e1 7e be
       -0.19915234 -0.18052347 -0.105422385 -0.24890852
000130 01 af 03 be f1 3b 63 3e aa 75 a4 3c f4 a9 88 bd
       -0.12859727 0.22190835 0.020075638 -0.06673041
000140 a6 98 08 3e 33 1c 33 3e e4 c7 2a be 17 9d d3 3d
       0.13339481 0.17491226 -0.16677815 0.10332697
000150 f6 14 88 3d ba 63 92 3c bd 49 50 bd 20 93 3c be
       0.06644623 0.017869819 -0.050851572 -0.18415499
000160 49 91 55 be e5 1c b8 3e 3a b7 e3 3c 73 4e 7f 3c
       -0.20856203 0.35959545 0.02779733 0.015582669
000170 26 e6 ab 3d 50 9b 0d be 42 fd 98 be cd fb 34 3d
       0.08393507 -0.13828778 -0.2988072 0.04418545
000180 b1 00 e7 3d 2f 85 04 be 91 03 a0 bd e5 d1 b5 bd
       0.11279429 -0.1294143 -0.0781318 -0.08877925
000190 3a 6f b5 3d 70 45 b2 bc 7f 28 ba be 02 92 b3 3b
       0.088591054 -0.021761626 -0.3635902 0.005480052
0001a0 19 78 ad 3d 9e d5 9e be 45 4b e9 bd 07 4d d9 bd
       0.084701724 -0.31022352 -0.1139131 -0.10610395
0001b0 96 65 2c 3d fc af 07 3d 2a c8 cd bd 20 56 df bd
       0.042089067 0.033126816 -0.10047944 -0.10905099
0001c0 fb 62 91 bc 32 e0 0b bd be 5c 9d be fd 1d 26 3e
       -0.017747393 -0.034149356 -0.3073482 0.16222377
0001d0 f3 ce a8 3d dd ea 5a 3e 73 ae 0f be cf 98 43 3e
       0.082425974 0.21378656 -0.14031391 0.1910126
0001e0 42 eb 16 be ba 1b 50 be 50 14 88 bd 36 4c 1b 3d
       -0.14738181 -0.20323077 -0.06644499 0.037914477
0001f0 a3 19 75 be 39 04 98 3d 55 53 8e 3e c2 3c f8 bd
       -0.23935561 0.074226804 0.27797952 -0.12120964
000200 16 93 b8 bc 7a 17 b1 bd dd 38 53 bd 0c 34 8c be
       -0.022531074 -0.08647056 -0.0515679 -0.2738346
000210 5c f7 02 be bf 92 3c be 29 10 46 3d 7a 6b 01 be
       -0.12789673 -0.18415354 0.048355255 -0.12638655
000220 bd 05 94 be 08 e3 ce bd 31 85 89 be 12 0c 8d 3d
       -0.28910628 -0.101018965 -0.2685943 0.06887068
000230 35 af de 3b 31 f1 92 3d 89 0c d3 bb 57 6f b9 3d
       0.0067957886 0.0717491 -0.0064407033 0.090544395
000240 62 92 c2 bc c9 53 0f 3e 1a 17 40 be 7c 62 8c 3d
       -0.023751441 0.13996805 -0.18758813 0.06854722
000250 ab ba d4 3d db e2 94 bd a2 6a c0 bc cb b5 10 be
       0.103871666 -0.07269832 -0.023488346 -0.14131849
000260 e4 92 31 bd bf ff 91 be 0b bd 30 3e d8 96 9c bd
       -0.043352976 -0.2851543 0.17259614 -0.07645959
000270 bb 35 c5 3d 04 5d af be 2a f0 cc bd 22 36 5a be
       0.09629389 -0.34250653 -0.10006745 -0.21309713
000280 78 4f 64 be 1e 85 72 bd c6 cb 36 bd 88 cc 26 3c
       -0.2229594 -0.05920898 -0.044627927 0.0101806
000290 8c 6a 2d be d9 53 c0 3e 5b 0a 0a bc 5b 9e ee bd
       -0.16935176 0.3756397 -0.0084253205 -0.11651298
0002a0 46 ba f0 3d 3c 99 eb 3d 01 65 0e be 49 22 fd bd
       0.11754279 0.115038365 -0.13905717 -0.12360055
0002b0 cf ee 82 3c d2 c8 1a bd 7e 00 c9 bd 0d 12 be bd
       0.015983013 -0.037789173 -0.09814547 -0.09280787
0002c0 ee 6d e1 3d af 85 96 bd b6 47 7e 3c 45 41 c2 3c
       0.110072955 -0.07349717 0.015520027 0.023712764
0002d0 9a 1e c6 bd ce 75 12 3e db 53 f8 3d 3c 5d a5 3d
       -0.096738055 0.14302751 0.12125369 0.08074424
0002e0 09 c1 84 be 0a 6a 5b bd 16 bd a8 3d de b9 99 3e
       -0.25928524 -0.053567924 0.0823919 0.30024618
0002f0 a3 38 6c bd 90 e5 b3 bc e9 65 1c be 81 35 87 bd
       -0.0576712 -0.02196005 -0.1527325 -0.06602002
000300 1f 06 5d 3e 34 29 4f bd 01 c7 88 3d 84 fb 63 3e
       0.21584366 -0.050576404 0.06678582 0.22263914
000310 7c bf 0c 3e a8 e6 c6 bd 42 68 82 bc 61 01 1a 3d
       0.1374492 -0.09711963 -0.015918855 0.03759897
000320 f8 46 07 3d 85 4a 74 bd 31 f7 f7 3d c6 18 fb 3d
       0.033026665 -0.05964138 0.12107695 0.122605845
000330 c6 84 d1 bd f5 39 87 3e 8e 38 43 be da 80 04 3d
       -0.10230403 0.26411405 -0.19064543 0.032349445
000340 05 8e 26 3c 62 4b 13 3d 56 46 0f 3e 7b aa a5 bd
       0.010165696 0.035960563 0.13991675 -0.08089157
000350 4e 7c 28 3c 7c 9b d3 3c dc 00 57 3e cf b5 ef 3d
       0.010283543 0.025830977 0.20996422 0.11704599
000360 1b aa 67 be 85 04 ec be ac 79 a7 3d 46 a2 22 be
       -0.22623484 -0.46097198 0.08177504 -0.15882215
000370 b9 91 4e be da 9a b2 bd 4f 2a 5f 3d 63 70 40 3e
       -0.20172776 -0.08720942 0.054483708 0.18792872
000380 01 48 05 bd b5 b7 45 be 3d 54 09 3e 31 9f cd bd
       -0.03253937 -0.1930836 0.1341104 -0.10040129
000390 b3 80 80 bd f2 c4 50 3b 42 2d b5 bc 75 c6 45 3e
       -0.062745474 0.003185567 -0.022116307 0.19313987
0003a0 01 2d 97 be 15 54 8b 3e e9 82 49 3e 97 8e a0 be
       -0.29526523 0.27212587 0.19678845 -0.31358787
0003b0 28 74 be be de ed 39 ba ee cd 2c 3e 23 46 2a be
       -0.37197995 -0.0007092635 0.16875431 -0.16628318
0003c0 a7 c1 80 be 99 8b 8f be f7 91 1a be da 97 b0 3d
       -0.25147745 -0.28036192 -0.15094744 0.086227134
0003d0 0d 3b 5e 3c 2b 4b 2f 3d 88 0d 8d be 7d a7 d9 bd
       0.0135638835 0.042796295 -0.27549386 -0.10627649
0003e0 b1 a6 41 bd 06 15 ae 3d df 83 81 bd 3d 3c dd bd
       -0.04727811 0.08500104 -0.063239805 -0.10802505
0003f0 ec 84 9b be 77 92 28 bd 91 85 45 bd 1d ea a7 3d
       -0.3037485 -0.041155305 -0.048223082 0.081989504

sequential_1/dense_5/MatMul f4 [12, 52]
000000 51 6e ba bd 98 10 86 be dc 6b 70 3e d3 fd d8 bd
       -0.091030724 -0.26184535 0.23478645 -0.10595288
000010 bc 97 8b 3e fd 84 f1 3d 35 a9 3e be 4d 08 19 3c
       0.27264202 0.117929436 -0.18619235 0.009340358
000020 60 4c 76 be 7f 8e a3 be e1 a5 64 3d 4b 40 c4 3d
       -0.24052572 -0.31944653 0.055822257 0.095825754
000030 9a 58 aa bd 4d cc 5b be b8 27 b6 3d c7 07 a7 3d
       -0.08317681 -0.21464653 0.088942945 0.0815578
000040 81 9c 9a be 6f b0 26 3e 8a 78 cf be 4d d7 15 be
       -0.30197528 0.16278242 -0.40521652 -0.14632912
000050 72 03 32 3e f6 7f cd be b1 7a 3c 3d 8f 47 e5 bd
       0.17384127 -0.4013669 0.046015445 -0.11195289
000060 68 55 49 be dd 10 28 bd e5 ef a2 be 9e 1c 76 be
       -0.19661486 -0.041031707 -0.3182365 -0.24034354
000070 6f 0d f7 3d 5c 2b df 3d 73 43 82 bd 2f b8 b4 3d
       0.12063109 0.10896942 -0.06360521 0.08824193
000080 be 33 e1 3d 09 e6 3e 3e 17 e9 6e be 7a 35 5a 3e
       0.10996197 0.18642439 -0.23331104 0.21309462
000090 b9 23 af bb 97 80 68 3d 33 59 1c 3e e5 f3 cf bd
       -0.0053448346 0.056763258 0.15268402 -0.10153941
0000a0 68 16 46 3e 30 80 44 3e eb ce 0d 3d 24 a0 16 be
       0.19344485 0.19189525 0.03462116 -0.14709526
0000b0 9e 29 a5 be 9f 3b 33 3e 84 ce 91 3e 1f 99 2f be
       -0.32258314 0.17503212 0.2847787 -0.17148255
0000c0 f4 ff cd bd 1c a6 b0 bc 06 2b a3 be e5 c8 f7 bc
       -0.10058585 -0.021563582 -0.31868762 -0.030247161
0000d0 9f 53 04 3e ed fa 0c 3c 37 4d d0 3d 7c 71 93 bd
       0.12922524 0.008604747 0.101709776 -0.0719938
0000e0 fb 49 84 be 73 f9 c0 bb 1a 64 13 3e 0d a1 db bd
       -0.25837693 -0.0058891117 0.14393654 -0.107240774
0000f0 b5 0b 65 3e 0b 6d fb 3d 9c 00 7a 3e 11 22 83 3d
       0.22367747 0.12276658 0.24414295 0.06402982
000100 57 5d 51 bd 75 a3 7e 3b fd 3f f5 3d 23 d9 a9 be
       -0.051114406 0.0038854752 0.119750954 -0.33173475
000110 10 aa 55 be 84 53 77 be 33 fe eb 3c 4c 7e dc 3d
       -0.20865655 -0.24152952 0.028807735 0.10766277
000120 4d 94 8d 3d 40 57 5f 3e ee 08 0a 3e 0f 3a 3f bc
       0.06913052 0.21810627 0.13479969 -0.011671557
000130 0b 33 58 bd 51 b8 b1 bc a2 45 a7 be d2 a3 08 3e
       -0.052783053 -0.021694334 -0.32670313 0.13343742
000140 27 08 82 bd ce 79 34 3e d5 d9 4f bd 38 9d 88 3b
       -0.06349211 0.1762459 -0.05074485 0.0041691326
000150 e4 1a 32 3e 4b 80 92 3e f8 10 ab bc 76 e9 fe 3c
       0.1739307 0.28613505 -0.020882115 0.031117182
000160 bc 6e 69 bd fa aa a4 3c fb 8f fc bd ea f8 0a 3e
       -0.05699037 0.02010106 -0.123321496 0.13571516
000170 9f 86 1e be 8c 28 ff bd 1b c8 6c bc 86 67 bb bd
       -0.15481041 -0.124589056 -0.014452006 -0.09150605
000180 25 14 a6 be da 96 5d be 27 66 44 be 03 c4 19 bd
       -0.32437244 -0.21639577 -0.19179593 -0.037540447
000190 0c b4 f7 3d f7 df 8f 3d 72 46 9b 3e a1 c0 20 3d
       0.12094888 0.0702514 0.30327183 0.039246205
0001a0 fe a3 38 bd 70 d4 90 3d ca c0 e5 3c 26 3b 0a be
       -0.04507827 0.07071769 0.02804603 -0.13499126
0001b0 bc 1d d0 3d 99 ee 2a be 9f a8 9f bd ec 6b 3a be
       0.101619214 -0.1669258 -0.07795834 -0.18205231
0001c0 fd 5a ef bd bb 3d 8f bd c3 21 7e bd 1a e2 8f 3d
       -0.116872765 -0.06994196 -0.062043916 0.07025547
0001d0 f5 9f 47 be be d0 f7 3c 10 00 84 be b2 ce 1a bd
       -0.19494613 0.030250903 -0.25781298 -0.037794776
0001e0 fa 40 95 3d 01 5e 2e 3d f8 52 86 3e a0 15 05 3d
       0.07287784 0.042570118 0.26235175 0.032491326
0001f0 c0 eb a0 be 4a f5 1d 3e 21 56 64 be 16 2e 43 3c
       -0.31429863 0.15425602 -0.2229848 0.011912843
000200 58 dd 99 3d 0d f9 4d 3d 3e be 3f 3e 54 3d 57 3e
       0.07512921 0.05028634 0.18724915 0.21019489
000210 cf 44 b5 3d 13 51 12 3e 39 4c df 3d 1a 4b 29 3e
       0.08851015 0.1428874 0.1090321 0.16532555
000220 1a 23 06 3e bf 90 ac bd fb a4 5f 3e 9f 3f 92 be
       0.13099328 -0.084260456 0.21840279 -0.28564164
000230 15 33 bf be c6 79 ac be 99 70 7c 3e 79 be bb be
       -0.3734366 -0.33686656 0.24652328 -0.36668757
000240 67 ff 5c bd 16 9c c2 b8 c4 78 52 be ab f8 35 be
       -0.05395451 -9.279714e-05 -0.20553881 -0.1777064
000250 47 ce f2 3d 15 64 ac bc 54 cb e2 bd eb 7e 1a 3e
       0.118557505 -0.021043817 -0.11073938 0.15087478
000260 7c 1c 8d 3e 82 13 74 3e 5d df 58 3e ab f2 11 bd
       0.27560794 0.23835567 0.21178956 -0.035631817
000270 43 ed 2b 3c 73 73 38 be 3f ec 2e bc 40 57 a6 be
       0.010493579 -0.1801279 -0.010676443 -0.3248844
000280 38 17 f8 bd 72 04 e3 3c d1 8b b0 bc 16 60 ac bd
       -0.121138036 0.02771208 -0.021551045 -0.084167644
000290 0f ee 49 3e 6a 67 1f be ee ec bf 3d b2 5e 88 be
       0.19719718 -0.15566793 0.093713626 -0.26634747
0002a0 7e 3c 02 be c6 bb a0 3d 94 ff 92 be c9 00 28 3e
       -0.12718388 0.07848315 -0.28710616 0.1640655
0002b0 02 d2 3c bd d6 fb 11 3e 77 e3 7b 3e 62 19 81 be
       -0.046098717 0.14256224 0.2459849 -0.25214678
0002c0 9f f2 b8 3d c9 58 87 be ce 0a 4c be 6e c8 60 3e
       0.09030651 -0.26434925 -0.19925997 0.21951458
0002d0 d0 b7 61 3e af da 22 3e 85 90 27 3d 56 62 bc 3d
       0.22042775 0.15903734 0.04090931 0.091984436
0002e0 42 00 a9 be 66 d8 02 be 2c 52 4e be cd 8d 8c bb
       -0.3300801 -0.12777862 -0.20148534 -0.004289365
0002f0 e3 d2 2f 3e 0b bb 36 be 2c 68 8f 3d 62 fa 96 be
       0.1717029 -0.17844789 0.07002291 -0.29487902
000300 2a b7 c8 bd e8 e0 7b be 16 42 b9 3d 56 c8 25 bd
       -0.09800561 -0.24597514 0.09045808 -0.04047426
000310 bb 93 0f be d4 47 4e 3e 73 90 c6 3c 6e 80 86 3d
       -0.14021198 0.20144588 0.0242388 0.06567465
000320 9f 95 04 3d f1 05 4b be 2b 9f c5 39 0a 26 67 3d
       0.032369252 -0.19826485 0.00037693357 0.05643276
000330 76 4a 8d be 5a 4b 91 3e cb 65 8d 3d 5c 70 33 3e
       -0.27595872 0.283778 0.06904181 0.1752333
000340 6f 1c 09 be fc be 43 be f9 72 9f bd 9a 17 2c 3e
       -0.13389753 -0.19115824 -0.07785601 0.16805878
000350 f9 03 9b bc 15 8e c9 bd 63 e6 2f bd 92 5b a7 bd
       -0.018922793 -0.09841553 -0.042944323 -0.081717625
000360 bb 71 c6 be f6 86 a4 3e 65 b6 ab 3d fd 65 6d be
       -0.38758644 0.32134217 0.08384398 -0.23183437
000370 0f 69 e4 bd b0 64 84 3e b2 15 4e be d9 06 d3 bd
       -0.11152851 0.25858068 -0.20125464 -0.103040405
000380 20 e3 fb bd 84 d1 f9 3d 29 84 0d 3d b9 72 77 3d
       -0.1229918 0.12198165 0.034549866 0.060412142
000390 38 7a a5 3c ea 8f 58 3d 43 ca c6 3c 2b 62 40 bd
       0.02019988 0.052871622 0.024266368 -0.04696862
0003a0 bf ff ba 3d 96 c4 4e be 7b bd 5e bd a3 31 c8 3d
       0.09130811 -0.20192179 -0.05437992 0.097750925
0003b0 ee 6f 16 be f0 38 59 bc df ac 29 be db 75 3f 3e
       -0.14691135 -0.013258204 -0.16569851 0.18697302
0003c0 d0 57 76 be 98 1b b2 bd 64 b9 0a be 91 a3 3b 3e
       -0.24056935 -0.08696669 -0.13547283 0.18324114
0003d0 9d 44 5f 3d 99 5b a5 bd 2f d7 a6 bc 3c a7 de 3c
       0.054508794 -0.080741115 -0.02036628 0.027179353
0003e0 63 eb a3 bd aa cd d8 bd 47 82 89 be b5 42 cb bd
       -0.08003881 -0.10586102 -0.26857206 -0.09924833
0003f0 9b d0 ec 3d ce 1c 14 3e dd 6e 2f 3e b9 cb 71 bc
       0.11563226 0.14464113 0.17132135 -0.014758044
